WARNING:tensorflow:From /home/michael/miniconda3/envs/tensorflow/lib/python3.7/site-packages/tensorflow/python/ops/resource_variable_ops.py:435: colocate_with (from tensorflow.python.framework.ops) is deprecated and will be removed in a future version.
Instructions for updating:
Colocations handled automatically by placer.
_________________________________________________________________
Layer (type)                 Output Shape              Param #   
=================================================================
conv1 (Conv3D)               (None, 52, 92, 92, 100)   73000     
_________________________________________________________________
max_pooling3d (MaxPooling3D) (None, 52, 1, 1, 100)     0         
_________________________________________________________________
reshape (Reshape)            (None, 52, 100)           0         
_________________________________________________________________
gru (GRU)                    (None, 50)                22650     
_________________________________________________________________
dense1 (Dense)               (None, 50)                2550      
_________________________________________________________________
dense2 (Dense)               (None, 4)                 204       
=================================================================
Total params: 98,404
Trainable params: 98,404
Non-trainable params: 0
_________________________________________________________________
None
WARNING:tensorflow:From /home/michael/miniconda3/envs/tensorflow/lib/python3.7/site-packages/tensorflow/python/ops/math_ops.py:3066: to_int32 (from tensorflow.python.ops.math_ops) is deprecated and will be removed in a future version.
…
